portable_app/models/vin_model_model_pytorch.pth (torch, 11325 bytes, 4 tensors)

fc1.weight f4 [64, 1]
0	0xbf176c74	-0.5914986
1	0xbe082578	-0.13295543
2	0xbeaaab70	-0.3333392
3	0xbeb576f8	-0.35442328
4	0x3ba91c55	0.005160848
5	0x3f0cc391	0.5498591
6	0x3ebe4067	0.3715851
7	0x3cd60847	0.026126994
8	0xbef2488f	-0.47320983
9	0xbea3acc8	-0.3196776
10	0xbe98e7ad	-0.29864255
11	0xbf3c39d0	-0.73525715
12	0x3f32db7f	0.69866174
13	0xbe4ffbae	-0.20310852
14	0xbfaca2df	-1.3487204
15	0xbe8f47c2	-0.27984434
16	0xbf92a6fb	-1.1457208
17	0xbdd66c8e	-0.10469924
18	0x3f25e3bb	0.64800614
19	0xbf34c1b2	-0.70608056
20	0xbfaa2cae	-1.3294885
21	0xbefa1afa	-0.48848706
22	0x3ed327d1	0.41241315
23	0x3fd70813	1.6799339
24	0x3ebdd04b	0.37072977
25	0xbe4ad76f	-0.19808744
26	0x3eb5855f	0.35453317
27	0xbc9e52eb	-0.019326648
28	0xbf873af4	-1.0564866
29	0x3ec1b325	0.3783199
30	0xbe140528	-0.14455092
31	0x3f982adc	1.188808
32	0xbdaa97ca	-0.08329733
33	0xbfc5c8d0	-1.5451908
34	0xbf6d9ac2	-0.92814267
35	0xbe618460	-0.22023153
36	0xbf13faa2	-0.5780431
37	0xbe430588	-0.19045079
38	0x3e636968	0.22208178
39	0xbf2b6099	-0.6694427
40	0xbe6213b1	-0.22077824
41	0x3f1d2f03	0.6139986
42	0xbde1cf19	-0.11025829
43	0xbf9cfe9d	-1.2265202
44	0xbe8280c2	-0.2548886
45	0x3f552666	0.83261716
46	0x3b80f826	0.0039358316
47	0xbec3d488	-0.38248086
48	0xbf95cb4e	-1.1702669
49	0xbf7ceeaa	-0.9880167
50	0xbed75479	-0.42056635
51	0x3f10d4d7	0.5657477
52	0xbf86803d	-1.0507885
53	0x3fa1d3d7	1.2642773
54	0xbf53022e	-0.824252
55	0xbe513b1e	-0.20432708
56	0x3f140762	0.57823765
57	0xbe423098	-0.1896385
58	0x3f9119fe	1.1336057
59	0x3eb408c5	0.3516294
60	0xbea64358	-0.32473254
61	0xbfcaee4d	-1.5853974
62	0xbf1efe08	-0.6210637
63	0x3f2da40e	0.6782845

fc1.bias f4 [64]
0	0x410dd8d5	8.8654375
1	0xbf75d810	-0.9603281
2	0xbe9dab7c	-0.30794895
3	0x41082a22	8.510286
4	0xbe603f91	-0.21899249
5	0xc0b0cce6	-5.525012
6	0xc083fb8c	-4.1244564
7	0xbf810f33	-1.0082763
8	0x411f2a16	9.947775
9	0xbe719580	-0.23592186
10	0x41150f01	9.316163
11	0xbdfc2e60	-0.12313533
12	0xc03fdd8a	-2.9978967
13	0x4076cadd	3.8561318
14	0x3fa57db3	1.2928985
15	0x410c47ac	8.767498
16	0x3f8b19ef	1.0867289
17	0x3ff10e7a	1.8832543
18	0xbfad2bce	-1.3528993
19	0x40e23376	7.068782
20	0x3fa215b8	1.2662878
21	0x411c4b8a	9.768442
22	0xc03d8a85	-2.9615796
23	0xc118f049	-9.558663
24	0xbf6643c2	-0.8994714
25	0x403dc53b	2.965163
26	0xbf8bffd4	-1.0937448
27	0x3c1301f5	0.008972635
28	0x40ebbbaf	7.3666606
29	0xc03fae2b	-2.9950054
30	0xbf5f90ae	-0.8733014
31	0xc0fff7aa	-7.9989824
32	0x3fc0a88d	1.5051438
33	0x3fc14135	1.5098025
34	0xbf7325c4	-0.949795
35	0xbf1bdb60	-0.60881615
36	0xbf7f1dd2	-0.9965488
37	0x405af250	3.4210396
38	0x3f1a0c89	0.6017538
39	0x40d74d2f	6.728172
40	0x408630be	4.19345
41	0xbfc0fd6d	-1.507734
42	0x3ffc9972	1.9734328
43	0x3f956041	1.1669999
44	0x409b00f1	4.843865
45	0xc044f271	-3.0772974
46	0xbe246330	-0.16053462
47	0xbf7feb88	-0.9996877
48	0x3f923f33	1.1425537
49	0xbf03b0a4	-0.5144141
50	0x41211e4d	10.069898
51	0xc08e7627	-4.451923
52	0x3f818b26	1.012059
53	0xc13d124d	-11.816968
54	0xbe0f03c8	-0.13966286
55	0x406b4b59	3.6764739
56	0xbf1e5aae	-0.61857116
57	0xbdf80e40	-0.12112093
58	0xc115893c	-9.3460045
59	0xc0771bad	-3.8610642
60	0x410e77dc	8.904263
61	0x3fc65568	1.5494814
62	0xbc424880	-0.011858106
63	0xbf37933d	-0.7170904

fc2.weight f4 [31, 64]
0	0xbe627c8d	-0.22117825
1	0x3de63ee4	0.11242464
2	0xbd4f9150	-0.05067569
3	0xc19d4328	-19.657791
4	0x3e34b1d8	0.17645967
5	0x3e3ba7fe	0.18325803
6	0x3e751cfd	0.2393684
7	0x3de2f8cb	0.1108261
8	0xc08f6224	-4.48073
9	0xbc550040	-0.013000548
10	0xc0a2d297	-5.088207
11	0xbcd76d58	-0.026297256
12	0x3e867b53	0.26265964
13	0x3e41b00f	0.18914817
14	0x3a29b5cc	0.0006473928
15	0xc0aa04f3	-5.313104
16	0x3c5ff119	0.013668322
17	0x3e4cc79b	0.19998018
18	0x3ed0396a	0.40668803
19	0xbe00a17e	-0.12561604
20	0x3d7e1883	0.062035095
21	0xc068070e	-3.6254306
22	0x3ea60719	0.3242729
23	0x3ee79251	0.45228818
24	0x3eca02a7	0.3945515
25	0x3cba94ae	0.022775974
26	0x3e682bae	0.22672912
27	0x3dc7a4c6	0.09748225
28	0xbe4e6c0c	-0.20158404
29	0x3e8dbd8b	0.27683672
30	0x3d5d2738	0.05399248
31	0x3eb3392e	0.35004562
32	0x3e37be10	0.17943597
33	0xbd2e161e	-0.04250156
34	0x3c8d32c0	0.017236114
35	0x3d7b8db8	0.06141445
36	0x3cda1770	0.026622504
37	0xc0036afe	-2.0534053
38	0x3e8dd314	0.27700102
39	0xbe2a9a86	-0.16660509
40	0x3e1f5bc8	0.15562356
41	0x3e8347b5	0.25640646
42	0x3e4a4604	0.19753271
43	0xbcd99298	-0.02655916
44	0x3c5345bb	0.012895043
45	0x3e95a0f7	0.2922437
46	0x3e2a8095	0.16650613
47	0x3d95eef0	0.07320964
48	0x3ccb6f6b	0.024833402
49	0xbc67bd10	-0.014144197
50	0xc19408fe	-18.50439
51	0x3e9d05fa	0.30668622
52	0xbe274c76	-0.16337761
53	0x3f08aa0a	0.5338446
54	0x3d02a8a8	0.031899124
55	0xc03a6a38	-2.912733
56	0x3ea83193	0.32850322
57	0x3d3f322c	0.046678707
58	0x3f091a58	0.5355582
59	0x3e387544	0.18013483
60	0xc1822531	-16.26816
61	0xbe2ceb07	-0.16886531
62	0xbdaed9e6	-0.085376546
63	0x3eb415d1	0.35172895
64	0x3f78b4b0	0.9715071
65	0xbdbcb9b8	-0.092151105
66	0x3d87c884	0.06630042
67	0x3f680d69	0.9064546
68	0xbf909647	-1.1295861
69	0xbe94b20a	-0.29042083
70	0xbe983747	-0.29729673
71	0x3dd94a79	0.10609908
72	0x3f450fa0	0.76976967
73	0xbdee9d84	-0.116511375
74	0x3f379d6a	0.7172457
75	0xbdbca53e	-0.09211205
76	0xbf0d5ed6	-0.55222833
77	0x3d996e39	0.074917264
78	0x3ffff26b	1.9995855
79	0x3f2f9983	0.68593615
80	0x3ffd5aee	1.9793375
81	0xbe9127a7	-0.28350565
82	0xbf8ac2f3	-1.0840744
83	0x3f9af9a1	1.2107431
84	0x400063d9	2.0060942
85	0x3f5dd654	0.86655164
86	0xbf3ca383	-0.73687
87	0xbf90de3a	-1.1317818
88	0xbf53fa0d	-0.8280342
89	0x3d731730	0.059348285
90	0xbeb535c4	-0.35392582
91	0xbeead39a	-0.45864564
92	0x3fa1c810	1.2639179
93	0xbf0c4f73	-0.5480873
94	0xbde64244	-0.11243108
95	0xbf3cc069	-0.73731095
96	0xbe9b4b72	-0.30330998
97	0x3ffec757	1.9904584
98	0xbc1bb3f0	-0.00950335
99	0xbddb6912	-0.107134
100	0xbd5e0a38	-0.054208964
101	0x3da83077	0.08212369
102	0xbf986ebe	-1.1908796
103	0x3f95bc09	1.1698009
104	0x3e0921e3	0.13391833
105	0xbf7dfe47	-0.9921612
106	0xbe2518ab	-0.16122691
107	0x3ffd933e	1.981056
108	0x3ed40325	0.4140865
109	0xbf462edc	-0.7741525
110	0xbf4f4f92	-0.8098079
111	0x3dbea85e	0.09309457
112	0x3fefb58e	1.8727281
113	0xbde87cee	-0.113519534
114	0x3f385550	0.72005177
115	0xbec9ac5c	-0.39389312
116	0x40005312	2.0050702
117	0xbf88a654	-1.0675759
118	0x3dec6796	0.11543195
119	0x3eb23561	0.3480635
120	0xbffc1cad	-1.9696251
121	0xbd4df36c	-0.050280973
122	0xbf09e005	-0.5385745
123	0xbeb4d3d0	-0.3531785
124	0x3f1ecbbd	0.6202963
125	0x3ff184e5	1.8868681
126	0x3db8111e	0.0898764
127	0xc008e4b0	-2.138958
128	0x3f9330d2	1.1499274
129	0xbd93d630	-0.072185874
130	0xbdcb9792	-0.09941019
131	0x3f772268	0.96536875
132	0xc0a97bdb	-5.296369
133	0xbf158480	-0.58405304
134	0xbe8c8d14	-0.27451384
135	0x3dbce69b	0.09223672
136	0x3f5dc680	0.8663101
137	0xbcfba4c0	-0.030718207
138	0x3f468105	0.7754062
139	0x3dda31de	0.10654043
140	0xbf2fcfa8	-0.68676233
141	0x3ea43db7	0.32078335
142	0xc004ce72	-2.0751004
143	0x3f38263a	0.7193333
144	0xc0081bd1	-2.1266978
145	0xbe393257	-0.1808561
146	0xc0717e1f	-3.7733228
147	0x3fb717bd	1.4304119
148	0xbff4c129	-1.9121448
149	0x3f7aacf5	0.9792016
150	0xc020436f	-2.5041158
151	0xbf05d490	-0.5227747
152	0xc04211d1	-3.0323374
153	0x3e913ff7	0.28369114
154	0xbf473e50	-0.77829456
155	0xbe939e04	-0.28831494
156	0x400673e3	2.1008232
157	0xbf9a4c76	-1.2054584
158	0x3df5c0ba	0.1199965
159	0xbebe616d	-0.37183705
160	0xbe59ada8	-0.21257651
161	0xc00514e1	-2.0793993
162	0x3c9a96b0	0.018870682
163	0x3a0ca800	0.000536561
164	0x3da0b1de	0.078464255
165	0x3e98675f	0.29766366
166	0xbfd1ba80	-1.638504
167	0x3fbceea3	1.4760326
168	0x3ef98690	0.48735476
169	0xc0370d36	-2.8601813
170	0xbda1d2cd	-0.07901535
171	0xbff4063a	-1.90644
172	0x3f50ec5f	0.81610674
173	0xbfbe6bb7	-1.4876622
174	0xc01f36c3	-2.4877174
175	0xbd2d5388	-0.04231599
176	0xc00149f6	-2.0201392
177	0x3ddb6fe4	0.10714701
178	0x3f3b3246	0.73123586
179	0xbf7d4918	-0.9893966
180	0xbff0ca27	-1.8811692
181	0xbeed948b	-0.46402392
182	0xbda36514	-0.079782635
183	0x3ef4455a	0.4770916
184	0xc104d552	-8.30208
185	0xbd5cb0c4	-0.053879514
186	0xbeccfb3f	-0.40035436
187	0xbed402fc	-0.41408527
188	0x3f5cad18	0.8620162
189	0xbff43e0d	-1.9081436
190	0xbd8c2784	-0.068434745
191	0xc117632c	-9.461712
192	0x3f56b080	0.8386307
193	0xbdc77a68	-0.09740144
194	0xbd7f22b4	-0.062288955
195	0x3f81d350	1.0142612
196	0x3f09fa36	0.53897417
197	0xbeaf63a8	-0.3425572
198	0x3db0c005	0.08630375
199	0x3dea3574	0.114359766
200	0x3f77dc58	0.9682059
201	0x3cdace68	0.02670975
202	0x3f8dbcd2	1.1073248
203	0xbb44fcc0	-0.0030057877
204	0xbfe276a9	-1.7692462
205	0x3ee0c47f	0.43899915
206	0xbfbaa7a5	-1.4582411
207	0x3f6254f1	0.8841086
208	0xbfc637d0	-1.5485783
209	0x3f0dd15a	0.5539757
210	0xc13be432	-11.743212
211	0x3f2774ff	0.65412897
212	0xbf9b2601	-1.2120973
213	0x3f5edd77	0.8705668
214	0xc05423dc	-3.3146887
215	0xbfbf59c7	-1.4949273
216	0xc1296eb4	-10.589527
217	0x3ecd61f9	0.4011381
218	0xc022dc69	-2.5447028
219	0x3e5c94bd	0.21541114
220	0x3f553bd2	0.83294404
221	0xbfc6b862	-1.5525019
222	0x3bc803c0	0.0061039627
223	0xbf8458a9	-1.0339557
224	0x3f0ff683	0.5623552
225	0xbf9fe1cf	-1.2490786
226	0xbcd286a8	-0.025698975
227	0x3dca8caa	0.09890111
228	0x3d77711c	0.060410604
229	0x3f0d6514	0.5523236
230	0x3f4702e9	0.77738816
231	0x3f25fc7e	0.648384
232	0x3f094bff	0.53631586
233	0xc1271a75	-10.443959
234	0x3f11f954	0.5702107
235	0xbfa65bec	-1.2996802
236	0x3f117aaa	0.56827796
237	0xc059be18	-3.4022274
238	0x3efaab8e	0.4895901
239	0x3db88184	0.09009078
240	0xbfadc3aa	-1.3575337
241	0x3d992414	0.074775845
242	0x3f57f12f	0.8435239
243	0xbf314158	-0.6924033
244	0xbfb2e49c	-1.3976016
245	0xbf827a49	-1.0193568
246	0xbd83985c	-0.064255446
247	0x3f088fdc	0.5334451
248	0x3f65fe1e	0.8984088
249	0xbd011828	-0.031517178
250	0xbf3d1a18	-0.7386794
251	0x3d145832	0.036216922
252	0x3f6f7190	0.9353266
253	0xbf91b1e9	-1.1382419
254	0xbd2331ac	-0.039842293
255	0x3f4a55e0	0.79037285

fc2.bias f4 [31]
0	0x3da5c40a	0.08094032
1	0x3e9a0883	0.3008462
2	0x3f03c9c8	0.5147977
3	0x3f6558c5	0.89588577
4	0x3f4c868f	0.7989282
5	0x3f70442d	0.9385403
6	0x3f88402e	1.0644586
7	0x3fb289d9	1.3948318
8	0x3fcc8853	1.5979103
9	0x3fc9f455	1.5777689
10	0x3fccd41e	1.6002233
11	0x400b8f75	2.180631
12	0x3fdce6ad	1.7257897
13	0x3fae24fe	1.3605039
14	0x3f248027	0.64258045
15	0x3ede6bd3	0.43441638
16	0x3f479b43	0.77971286
17	0x3ca508af	0.020145742
18	0xbf0782b4	-0.5293381
19	0xbf6828bb	-0.9068715
20	0xbf29a3c4	-0.6626551
21	0xbeaab8c8	-0.33344102
22	0x3d833656	0.06406848
23	0xbf416c2b	-0.75555676
24	0xbf5892ec	-0.84599185
25	0xbef9d99a	-0.4879883
26	0xbf01840a	-0.505921
27	0xbda00420	-0.07813287
28	0xbe9a17d6	-0.3009631
29	0xbcb0a280	-0.021561861
30	0xbfc41702	-1.5319521
