portable_app/models/vin_series_model_pytorch.pth (torch, 232583 bytes, 4 tensors)

fc1.weight f4 [64, 2]
0.015637247 -0.29508352 -0.01795289 -0.0016692824 0.032642208 -0.03645577 0.15867963 -0.048805922
-0.7027752 -0.20650566 -0.5949495 -0.22908229 -2.8945293 0.026156614 -0.2729156 -0.3867994
-0.07878396 -0.0008622996 -0.014860562 -0.15176243 0.22875737 -0.009069065 -0.2469941 0.013537424
0.002222981 -0.0129526695 -0.529458 -0.001274232 -0.075817294 -9.8640594e-05 -0.5554793 -0.49193698
0.15707712 -0.1865031 -0.0012654439 -0.13110785 -0.68936145 -0.5048237 -0.9155737 0.027362488
-0.038216252 -0.0043118945 -0.5126436 -0.21313348 0.1740651 -0.074809335 -0.46743703 -0.30603677
-0.16743468 -0.0002426991 -0.48629472 -0.35519686 0.24422738 -0.018569414 -0.39167798 -0.00023110477
-0.5831378 0.02445593 -0.51592505 -0.5665348 0.29333565 -1.4026616 -0.3184996 0.00028706176
0.35357544 -0.35622233 -0.21770394 -0.0017982203 0.0030626333 -0.01642563 -0.272477 -0.587239
-1.4912792 0.032463573 -0.0029268265 -0.6498036 0.484181 -0.3081887 0.577864 -0.5414868
-0.3864613 0.00013584878 0.4058242 -0.03658335 -0.26368347 -0.0016920324 -0.80741787 0.031272534
0.18211067 -0.036137886 -0.06923133 -0.63538504 -0.34594622 -0.65113 0.0696756 -0.006371543
-0.6748447 -0.26009563 0.04565137 -0.17079796 0.2983889 -0.22256018 -0.077367604 -0.39430895
0.16784042 -0.5456801 0.08971806 0.0075748805 -0.1173836 6.751621e-05 -0.5729421 -0.4451695
-0.39800718 -0.124743044 -0.36513475 -0.23736128 -0.3702158 -0.10144323 0.13271646 -0.07317892
-0.009948204 -0.0028091318 -1.7426459 0.026377399 -0.062668756 -0.0044486877 -0.010152161 -0.51435
00000000: af19 803c 3015 97be f011 93bc d3cb daba
00000010: d6b3 053d a552 15bd ea7c 223e b8e8 47bd
00000020: 13e9 33bf 3876 53be 9c4e 18bf 8c94 6abe
00000030: f83f 39c0 6546 d63c 98bb 8bbe 920a c6be
00000040: 7c59 a1bd f20b 62ba b779 73bc 9c67 1bbe
00000050: 5f3f 6a3e 6a96 14bc 05ec 7cbe 12cc 5d3c
00000060: 6faf 113b 6f37 54bc 8f8a 07bf 2204 a7ba
00000070: 1946 9bbd 44dd ceb8 e433 0ebf 2adf fbbe
00000080: d3d8 203e abfa 3ebe 40dd a5ba 2341 06be
00000090: fe79 30bf 203c 01bf 0a63 6abf 4c27 e03c
000000a0: a588 1cbd cb4a 8dbb 9c3c 03bf aa3f 5abe
000000b0: 1f3e 323e a335 99bd e853 efbe dab0 9cbe
000000c0: ff73 2bbe 0b7d 7eb9 9ffb f8be 5ddc b5be
000000d0: be16 7a3e e21e 98bc 048a c8be b754 72b9
000000e0: 8548 15bf cd57 c83c aa13 04bf 6d08 11bf
000000f0: 1730 963e 6a8a b3bf 6112 a3be c780 9639
00000100: d707 b53e c662 b6be c8ed 5ebe 43b2 ebba
00000110: 76b6 483b 0b8f 86bc 1b82 8bbe 4c55 16bf
00000120: 3de2 bebf 86f8 043d 00d0 3fbb 8759 26bf
00000130: 92e6 f73e e9ca 9dbe e5ee 133f e19e 0abf
00000140: 41de c5be a172 0e39 31c8 cf3e 6cd8 15bd
00000150: 8501 87be 30c7 ddba f0b2 4ebf a117 003d
00000160: 387b 3a3e 5205 14bd 28c9 8dbd 98a8 22bf
00000170: dd1f b1be 75b0 26bf 15b2 8e3d 60c8 d0bb
00000180: 9fc2 2cbf 412b 85be eefc 3a3d a9e5 2ebe
00000190: 6ec6 983e d1e6 63be e872 9ebd dde2 c9be
000001a0: 5cde 2b3e b1b1 0bbf 1abe b73d b436 f83b
000001b0: d066 f0bd 7d97 8d38 55ac 12bf 42ed e3be
000001c0: 99c7 cbbe 4879 ffbd f1f2 babe d60e 73be
000001d0: ed8c bdbe 78c1 cfbd d3e6 073e d4de 95bd
000001e0: cbfd 22bc 6919 38bb 050f dfbf 6a15 d83c
000001f0: 7a58 80bd 4cc6 91bb 4055 26bc 71ac 03bf

fc1.bias f4 [64]
-2.8597708 11.431687 -3.5793738 0.9527101 -0.6256828 0.6157945 -1.4614807 -0.5541116
0.84257895 1.9563752 -4.926973 0.47917315 -0.7353145 -1.0513183 -1.374744 0.59073573
-0.36049682 0.07224337 -0.5639907 5.29719 -2.0318618 -0.5040951 -0.5268508 -0.38814077
-0.14134687 0.35892922 4.7403207 -1.7405211 2.3933752 0.055425286 -0.047852308 -1.4003898
-0.41707182 0.8352602 -1.2324038 -0.6250953 1.2510976 -0.56609714 -0.47357962 1.9790117
-1.7569436 -4.0654325 -1.0569599 -4.922637 3.3913894 0.56577414 -0.37112594 3.8355272
0.4290493 2.5785005 1.3278768 0.3051569 1.664424 -9.87055 -0.16080071 -0.022592485
-0.25152278 -0.46545976 0.38817853 1.8143321 -0.6601469 -0.73076946 6.83301 0.70145303
00000000: 7c06 37c0 31e8 3641 7614 65c0 cfe4 733f
00000010: bf2c 20bf b5a4 1d3f cd11 bbbf 42da 0dbf
00000020: 41b3 573f 816a fa3f c3a9 9dc0 2f56 f53e
00000030: 923d 3cbf 9991 86bf 9df7 afbf 753a 173f
00000040: 0a93 b8be 55f4 933d b261 10bf 9582 a940
00000050: 060a 02c0 600c 01bf b2df 06bf 63ba c6be
00000060: 3cbd 10be 92c5 b73e b5b0 9740 65c9 debf
00000070: 0f2d 1940 a005 633d c800 44bd f93f b3bf
00000080: 708a d5be 9dd3 553f 68bf 9dbf 3f06 20bf
00000090: f723 a03f beeb 10bf 0779 f2be 4150 fd3f
000000a0: 87e3 e0bf 0618 82c0 764a 87bf 3e86 9dc0
000000b0: 860c 5940 93d6 103f 3804 bebe 4779 7540
000000c0: 5aac db3e 2706 2540 def7 a93f 863d 9c3e
000000d0: d80b d53f c6ed 1dc1 f1a8 24be e013 b9bc
000000e0: 98c7 80be be50 eebe 56bf c63e 093c e83f
000000f0: 63ff 28bf b513 3bbf 05a8 da40 6d92 333f

fc2.weight f4 [881, 64]
-0.23988281 0.13290118 -0.49056154 -0.26854047 0.06349732 0.05852963 -0.03794233 0.045620978
0.15739843 -0.12628525 0.019176748 -8.75446 -0.065236054 0.10223065 -0.1230645 0.082304776
-0.1527944 0.09923427 0.10605699 0.10049892 -0.22938424 -0.110614374 -0.35334167 0.029144824
-0.19294278 -0.03491035 0.20289108 -0.0025356244 -2.28058 -0.050360978 0.026300663 -0.15732886
-0.076790005 0.047999628 0.07408774 0.013260737 0.10424581 -0.0515334 -0.027374826 -0.091813505
0.069286995 -0.35405636 0.14852116 -0.08216923 -5.636089 -0.050756782 -0.00060257316 0.09557861
0.0712613 0.029106371 -0.1434519 0.058865115 0.0060551255 -0.29416543 -0.0780725 0.033713743
0.05839388 -0.11127417 -0.008636594 -0.47189003 -0.08979222 0.13698332 -6.6258216 0.016378582
-0.12446387 0.41548324 -0.24976337 -0.21043058 -0.10533221 -0.11378388 0.34370977 0.11828673
0.14500567 -0.20516445 0.27939114 -0.21605888 0.032354306 0.009278037 0.039740488 -0.00074237585
-0.07153441 0.05813345 0.08857216 0.15734026 0.034474712 -0.085536465 0.019239461 -0.063971624
-0.03219689 0.021034315 -0.9571648 0.02898588 -0.09731936 0.031077877 -0.069201335 -0.11902236
-0.0405733 0.03718965 0.08715294 -0.0377025 0.36249587 0.0757328 -0.04610017 -0.06305823
-0.06273086 0.4720236 -0.05854483 -0.078180194 -6.1068935 0.12329747 0.08405809 0.30879053
-0.1161689 -0.021033367 -0.074721284 -0.017418295 0.05752527 -0.118607104 0.0774625 -0.07351299
-0.085700035 -0.07579607 -0.055680856 -0.025024008 0.077144764 -0.833983 -0.7503438 -0.0440367
0.039706886 0.31123048 -0.29714894 -0.22821254 0.03744346 -0.014457777 -0.9131002 -0.05733344
0.078064024 0.045179993 0.29270247 -0.22190535 -0.0672055 0.11356361 -0.013374505 0.071256176
-0.13341954 -0.12374223 0.11507344 0.1525879 0.014484092 0.11628105 -0.157902 0.10890882
-0.042976875 0.051686004 -1.5837752 0.12708649 -0.14100868 0.041266993 0.0037598123 -0.17180833
0.10900241 0.113138445 0.14032738 0.036170676 0.23011273 -0.08472596 -0.11242662 -0.09781769
0.037501294 -3.3856816 -0.044254784 0.008844867 -3.2006524 -0.017645508 -0.00065524876 0.40861842
0.10645528 0.09702074 -0.06811848 -0.028139994 0.101753935 -0.16197892 -0.008290007 0.05738607
-0.02350609 -0.008320391 0.093685 -0.14999697 0.11615953 -0.8237453 -0.86441904 -0.06083165
-0.041933294 0.22815855 -0.34220946 -0.20618096 0.052648216 -0.117145464 -1.1163521 0.06100385
0.18425548 0.077422515 0.1775045 -0.26094547 0.106000826 0.022947604 -0.008563017 0.08067508
-0.045344893 -0.06869464 0.043139458 0.1419706 0.089631855 0.11292671 -0.12976764 -0.1208566
-0.019929364 0.07808356 -0.631287 0.13001259 -0.05010086 0.021335006 0.037012655 -0.13832492
-0.016802663 0.069672756 0.13250065 -0.07406402 0.28965706 0.04908061 -0.1784294 0.046990328
-0.04454126 0.2667758 0.14623958 -0.055744108 -7.77204 -0.060085297 0.00080272555 0.21171422
0.093444765 0.09783474 -0.14388128 0.09367694 -0.087285385 -0.09397021 -0.0058952183 -0.10235508
-0.07300484 -0.11108245 0.06830442 -0.24264507 0.09816402 -0.79629755 -0.79951876 -0.038664684
00000000: d7a3 75be 3f17 083e e22a fbbe 237e 89be
00000010: e20a 823d c4bc 6f3d 6b69 1bbd 10dd 3a3d
00000020: 0e2d 213e ec50 01be 8e18 9d3c 4512 0cc1
00000030: 7b9a 85bd 4e5e d13d 3e09 fcbd 688f a83d
00000040: 2376 1cbe 563b cb3d 6834 d93d 61d2 cd3d
00000050: b4e3 6abe ca89 e2bd 33e9 b4be 20c1 ee3c
00000060: cb92 45be 28fe 0ebd aec2 4f3e b82c 26bb
00000070: 06f5 11c0 5047 4ebd 7d74 d73c d11a 21be
00000080: 1444 9dbd 429b 443d 50bb 973d 9043 593c
00000090: d47e d53d b014 53bd 2c41 e0bc b808 bcbd
000000a0: 57e6 8d3d e046 b5be ee15 183e 5748 a8bd
000000b0: d75a b4c0 58e6 4fbd 00f6 1dba b8be c33d
000000c0: 72f1 913d 7c70 ee3c 0ee5 12be 8c1c 713d
000000d0: 136a c63b da9c 96be 7ae4 9fbd 6c17 0a3d
000000e0: 6c2e 6f3d b6e3 e3bd 8080 0dbc 929b f1be
000000f0: fce4 b7bd 5b45 0c3e bb06 d4c0 602c 863c
00000100: eae6 febd 38ba d43e f8c1 7fbe 1d7b 57be
00000110: 6ab8 d7bd 8607 e9bd bafa af3e 5040 f23d
00000120: 5e7c 143e a116 52be 5b0c 8f3e 8a3e 5dbe
00000130: f385 043d e802 183c ecc6 223d 009c 42ba
00000140: a280 92bd 571d 6e3d 5265 b53d ce1d 213e
00000150: 5b35 0d3d be2d afbd 139c 9d3c 8e03 83bd
00000160: e3e0 03bd 2850 ac3c c108 75bf cc73 ed3c
00000170: 5f4f c7bd 0897 fe3c 6eb9 8dbd ffc1 f3bd
00000180: 3030 26bd 2d54 183d 3e7d b23d f06d 1abd
00000190: 0f99 b93e cc19 9b3d 88d3 3cbd ac24 81bd
000001a0: 0a79 80bd 14ad f13e b4cc 6fbd f01c a0bd
000001b0: ac6b c3c0 6283 fc3d a626 ac3d cb19 9e3e
000001c0: f6e9 edbd 2b4e acbc 7907 99bd d0b0 8ebc
000001d0: 9e9f 6b3d 48e8 f2bd a9a4 9e3d fa8d 96bd
000001e0: 8083 afbd f83a 9bbd 9c11 64bd 26ff ccbc
000001f0: 13fe 9d3d e97f 55bf 8816 40bf d45f 34bd
00000200: b0a3 223d 9a59 9f3e e823 98be 8cb0 69be
00000210: 505e 193d 50e0 6cbc efc0 69bf 78d6 6abd
00000220: 08e0 9f3d a80e 393d 19dd 953e 283b 63be
00000230: 0aa3 89bd 0a94 e83d bd20 5bbc c2ee 913d
00000240: 229f 08be 916c fdbd a0ab eb3d 0140 1c3e
00000250: af4e 6d3c c224 ee3d 10b1 21be 960b df3d
00000260: 8508 30bd b4b4 533d 25b9 cabf f622 023e
00000270: 9464 10be 9407 293d 2f67 763b 86ee 2fbe
00000280: a83c df3d 21b5 e73d fbb1 0f3e b427 143d
00000290: aca2 6b3e ce84 adbd ee3f e6bd a454 c8bd
000002a0: f59a 193d 02af 58c0 8144 35bd 10ea 103c
000002b0: 7dd7 4cc0 508d 90bc 00c5 2bba 6f36 d13e
000002c0: 3a05 da3d cfb2 c63d b481 8bbd d885 e6bc
000002d0: 5e64 d03d cddd 25be cfd2 07bc a80d 6b3d
000002e0: d88f c0bc 4052 08bc ecdd bf3d ce98 19be
000002f0: 0ce5 ed3d f9e0 52bf 914a 5dbf 9c2a 79bd
00000300: 3fc2 2bbd 65a2 693e 1436 afbe 1a21 53be
00000310: a8a5 573d f6e9 efbd a0e4 8ebf 2cdf 793d
00000320: 78ad 3c3e b28f 9e3d bdc3 353e a59a 85be
00000330: f616 d93d 9dfc bb3c e54b 0cbc fa38 a53d
00000340: 91bb 39bd c7af 8cbd 00b3 303d be60 113e
00000350: e890 b73d 1e46 e73d cfe1 04be aa83 f7bd
00000360: e842 a3bc 46ea 9f3d 069c 21bf 0522 053e
00000370: 8f36 4dbd c0c6 ae3c 959a 173d 0ca5 0dbe
00000380: bda5 89bc 97b0 8e3d 40ae 073e e0ae 97bd
00000390: ee4d 943e c008 493d 32b6 36be ee78 403d
000003a0: e570 36bd d696 883e d4bf 153e ef53 64bd
000003b0: 8db4 f8c0 001c 76bd 006e 523a 9dcb 583e
000003c0: f85f bf3d 955d c83d 9d55 13be b2d9 bf3d
000003d0: aec2 b2bd 7473 c0bd ad2c c1bb 8a9f d1bd
000003e0: 9083 95bd 327f e3bd 30e3 8b3d f377 78be
000003f0: 380a c93d 28da 4bbf 43ad 4cbf dc5e 1ebd

fc2.bias f4 [881]
0.06732467 2.4447637 0.61425465 0.48523208 0.89445716 1.2938794 1.0169436 0.5098738
3.2334986 0.88699174 0.30288178 0.55332667 2.365282 1.0279982 -0.3526689 -0.067628086
-0.6053222 0.22737291 -0.0464271 -0.08819064 -0.062631465 0.5045297 0.28822732 -1.0539294
-0.8147198 0.8366951 -0.8491897 1.1873341 0.5704287 0.19585659 -1.1686119 0.08244523
0.18373512 -2.0126493 -1.8465543 0.97493106 1.136987 0.69209176 -0.44294754 -0.7112543
-2.5467794 -2.7483127 -2.6420763 -0.91353744 -0.9462441 0.55088043 -0.53081715 0.25768816
-1.9469101 -1.3102844 -1.5767338 -0.7141924 -1.1849315 -1.0215732 1.0221004 -0.9320874
-0.4902673 0.43319583 0.70559734 1.3582759 -0.5493208 -0.5658785 -0.67488915 0.4812248
-1.1295066 -0.9081783 0.4609145 0.07515576 0.509793 0.44683295 0.41922674 -0.35090128
-0.72008723 -0.5357073 -0.65220124 -0.63783365 2.3664956 0.97230244 0.6985511 0.4020406
-0.8273962 -0.3144097 -0.21699072 -0.061934277 -0.02776292 0.024425805 0.08666685 0.08634857
0.06249284 -0.656278 -1.2078506 -0.70384157 -0.582544 -0.3591631 0.50368834 0.8572445
1.1045109 1.5367975 0.56925994 0.41309106 1.2115238 0.58882093 0.86737233 1.2056183
-0.098772705 0.9205008 0.37183127 0.42376152 0.22544022 0.4074616 -0.9743837 -0.64727706
-0.9993094 -0.28131548 -0.28030634 -0.33385125 -0.43623883 -0.33939084 0.015982168 -0.2780626
-0.30667514 -0.31183973 0.15477367 0.60855037 0.38215008 0.16561493 0.17661747 0.21596994
0.23469998 -0.04729247 -0.020848509 -0.0553655 -1.1482481 -1.9455613 -1.441694 -1.6487284
-1.0664755 -1.1967099 -1.0883772 -0.84081894 -0.936917 -0.18711674 -0.07085813 -0.19791012
-0.06904345 -0.597574 -0.7155762 -0.024465093 -0.55611974 -0.40048283 0.062146693 -0.32993928
-0.4733312 -0.14221798 -0.05227288 0.12560858 0.5533601 0.66029996 0.55207735 0.21474078
0.3817727 0.42340073 0.50298524 1.4577856 1.7467476 1.7262608 0.65388477 0.985627
0.6569193 -0.56772107 -0.49972126 -0.6562873 0.027122987 0.49950126 0.48184055 2.422534
-1.094778 0.7577679 -0.028112352 0.6855044 -0.03284999 0.1818322 0.49419856 -0.16987276
0.5198463 0.47165954 0.31060722 0.7601017 1.1719657 -0.9389078 0.18584897 -0.67485195
0.6956543 -0.8553783 0.08483322 1.2044672 1.2341752 -1.0525843 -1.4887054 -0.048895136
-0.35890996 -0.3174201 0.22345033 -0.124783024 0.019810423 -0.22456408 -0.7360382 1.9272716
-0.60575026 0.07474224 -0.86721176 -0.002358842 -0.6742236 1.0606664 1.1896192 -0.13707563
0.08341074 0.35686886 1.6227075 0.15283164 -1.3678255 0.09925979 0.47280934 -0.13794084
0.68212914 -0.2673459 1.459555 0.25646013 0.04161724 -0.90882283 0.20234925 0.5961064
0.7591265 0.26203135 -0.29655108 0.01020293 0.005713272 0.05866856 0.9115153 0.57698256
0.5386893 -0.011565789 -0.13480267 -0.22016433 -0.26199338 -0.24759504 -0.32920927 -0.25366697
-0.15157597 1.7558748 -0.8570948 -0.99613106 -1.8689668 -1.7123126 -0.020580506 -1.20104
00000000: 84e1 893d 0277 1c40 cb3f 1d3f 5770 f83e
00000010: 25fb 643f d79d a53f 352b 823f 1787 023f
00000020: a4f1 4e40 e411 633f 5213 9b3e d1a6 0d3f
00000030: c860 1740 7295 833f 0591 b4be 9880 8abd
00000040: 65f6 1abf 72d4 683e 582a 3ebd 4b9d b4bd
00000050: ed44 80bd dc28 013f 8892 933e 29e7 86bf
00000060: 7a91 50bf a631 563f 7f64 59bf 90fa 973f
00000070: 9e07 123f a18e 483e 1395 95bf 0bd9 a83d
00000080: 0f25 3c3e 3fcf 00c0 e45b ecbf 1595 793f
00000090: ca88 913f ed2c 313f 05ca e2be c314 36bf
000000a0: 6ffe 22c0 5be4 2fc0 c717 29c0 97dd 69bf
000000b0: 0e3d 72bf 8006 0d3f a2e3 07bf b4ef 833e
000000c0: 5a34 f9bf 66b7 a7bf 6ad2 c9bf 50d5 36bf
000000d0: d6ab 97bf e9c2 82bf 30d4 823f 489d 6ebf
000000e0: 5104 fbbe d8cb dd3e 07a2 343f fcdb ad3f
000000f0: 4aa0 0cbf 6add 10bf 89c5 2cbf 1963 f63e
00000100: ac93 90bf 607e 68bf fcfc eb3e 43eb 993d
00000110: cb81 023f 4ac7 e43e e3a4 d63e 55a9 b3be
00000120: a357 38bf 1d24 09bf a9f6 26bf 1149 23bf
00000130: aa74 1740 d0e8 783f 3fd4 323f 44d8 cd3e
00000140: 3dd0 53bf 4ffa a0be d132 5ebe ccae 7dbd
00000150: 106f e3bc a018 c83c 647e b13d 85d7 b03d
00000160: 7ef8 7f3d d601 28bf d99a 9abf f62e 34bf
00000170: 9b21 15bf 3ae4 b7be b8f1 003f 6074 5b3f
00000180: 9d60 8d3f c8b5 c43f 05bb 113f ac80 d33e
00000190: 3613 9b3f f8bc 163f 1d0c 5e3f b351 9a3f
000001a0: 5849 cabd f1a5 6b3f ab60 be3e 45f7 d83e
000001b0: cdd9 663e cf9e d03e 3671 79bf f3b3 25bf
000001c0: bed2 7fbf 9508 90be 5084 8fbe 8dee aabe
000001d0: b25a dfbe a3c4 adbe 09ed 823c 395e 8ebe
000001e0: 8604 9dbe 75a9 9fbe fd7c 1e3e f5c9 1b3f
000001f0: 2da9 c33e f696 293e 36db 343e 3927 5d3e
00000200: 3155 703e c0b5 41bd 7eca aabc efc6 62bd
00000210: cbf9 92bf 2708 f9bf 6e89 b8bf 8809 d3bf
00000220: 4582 88bf ca2d 99bf f24f 8bbf e93f 57bf
00000230: cbd9 6fbf 889b 3fbe 111e 91bd f3a8 4abe
00000240: a766 8dbd 9cfa 18bf 0030 37bf 056b c8bc
00000250: dd5d 0ebf 160c cdbe 888d 7e3d cded a8be
00000260: 7858 f2be 97a1 11be 161c 56bd 899f 003e
00000270: 02a9 0d3f 6b09 293f f154 0d3f 02e5 5b3e
00000280: b677 c33e fbc7 d83e a4c3 003f b898 ba3f
00000290: 6d95 df3f 1df6 dc3f fe64 273f 0d52 7c3f
000002a0: dd2b 283f 2b56 11bf 77db ffbe 7202 28bf
000002b0: 0731 de3c a1be ff3e ceb3 f63e cc0a 1b40
000002c0: af21 8cbf 14fd 413f e04b e6bc 377d 2f3f
000002d0: b68d 06bd 3832 3a3e 9807 fd3e 20f3 2dbe
000002e0: a614 053f 5c7d f13e e907 9f3e 0696 423f
000002f0: f902 963f 435c 70bf 314f 3e3e 19c3 2cbf
00000300: 6616 323f 13fa 5abf 0abd ad3d fb2b 9a3f
00000310: 74f9 9d3f 15bb 86bf e68d bebf 4446 48bd
00000320: 0cc3 b7be e384 a2be 2ad0 643e 3e8e ffbd
00000330: 7849 a23c 20f4 65be 006d 3cbf d6b0 f63f
00000340: 7312 1bbf 7612 993d 9701 5ebf cd96 1abb
00000350: eb99 2cbf ebc3 873f 7145 983f 8e5d 0cbe
00000360: 40d3 aa3d 84b7 b63e e1b4 cf3f e67f 1c3e
00000370: e814 afbf b748 cb3d 1114 f23e 5d40 0dbe
00000380: 04a0 2e3f 90e1 88be b3d2 ba3f be4e 833e
00000390: d776 2a3d 9da8 68bf a434 4f3e 6e9a 183f
000003a0: 1d56 423f f928 863e 8bd5 97be 312a 273c
000003b0: 6636 bb3b 724e 703d 1159 693f 21b5 133f
000003c0: 8be7 093f 6f7e 3dbc b609 0abe c272 61be
000003d0: ff23 86be 8e89 7dbe 1e8e a8be a3e0 81be
000003e0: bb36 1bbe 81c0 e03f 916a 5bbf 7202 7fbf
000003f0: 4e3a efbf 0f2d dbbf 7398 a8bc aebb 99bf
