portable_app/models/vin_maker_model_pytorch.pth (torch, 8701 bytes, 4 tensors)

fc1.weight f4 [64, 1]
0.00130509 -0.17177385 -0.0024152645 -0.20692815 -0.10871928 0.031076003 -0.049383894 0.022909582
-0.9801836 -0.10633558 -0.31673363 -0.0012446552 -0.042155124 -0.26679838 -0.15375663 -0.40960193
-0.038371768 -0.005902914 -0.008492566 0.0010568491 -0.9060341 0.022659186 -0.97211087 -0.77864265
-0.8896612 -0.48112524 0.005737782 -0.040445518 -0.7448541 -0.6397852 -0.22317123 -0.0014088283
-0.29894173 -0.002750872 -0.9123683 -0.006804298 -0.0064560017 -0.032516494 -0.7663239 -0.7009416
-0.19158643 -0.22620857 -0.0010356554 0.0032996875 0.0022496067 -0.17264563 -0.7364098 -0.060512543
0.0017867568 -0.59168094 -0.030350145 0.0015848415 -0.6268408 -0.007634858 -0.46892476 0.04553939
-0.785794 -0.007781925 -0.2148894 0.0031354034 0.0020241863 1.3409773e-05 -0.46502483 -0.21383347
00000000: 8e0f ab3a 7ce5 2fbe 6a49 1ebb f9e4 53be
00000010: 37a8 debd 1a93 fe3c c446 4abd e0ac bb3c
00000020: 50ed 7abf 78c6 d9bd e92a a2be b323 a3ba
00000030: daaa 2cbd cc99 88be 6172 1dbe 58b7 d1be
00000040: b72b 1dbd 3b6d c1bb 6724 0bbc f985 8a3a
00000050: daf1 67bf c29f b93c 42dc 78bf 2055 47bf
00000060: d6c0 63bf 0c56 f6be 0104 bc3b 33aa 25bd
00000070: c2ae 3ebf f6c8 23bf 0087 64be 6fa8 b8ba
00000080: e40e 99be f947 34bb f890 69bf 97f6 debb
00000090: de8c d3bb 0430 05bd ce2d 44bf e970 33bf
000000a0: 3c2f 44be 38a3 67be d4be 87ba 923f 583b
000000b0: 236e 133b 04ca 30be 5a85 3cbf 00dc 77bd
000000c0: 9c31 ea3a 6778 17bf dea0 f8bc 75ba cf3a
000000d0: a378 20bf d52d fabb e816 f0be 8387 3a3d
000000e0: cc29 49bf 85ff febb f80b 5cbe 577b 4d3b
000000f0: 36a8 043b 89fa 6037 bc17 eebe 29f7 5abe

fc1.bias f4 [64]
-0.57644075 1.2167592 -0.40454686 2.2713685 5.6322803 -1.8796136 4.271569 -1.4547703
-0.6844598 1.1695284 5.035261 -0.06420177 1.588867 0.6511809 1.6856657 -0.009648137
4.461701 1.8409827 2.8117352 -0.55220807 -0.44048703 -3.559559 -0.42302883 -0.5617459
-0.83663213 -0.21434677 -1.7453392 4.052369 -0.9110205 -0.44617164 -0.48990858 -0.1633137
-0.5167569 -0.090979114 -0.9370462 2.0766702 1.8553103 4.716468 -0.6102178 0.84791124
1.6979653 2.0092435 -0.4129191 -1.1988655 -0.8140359 5.588416 0.8533038 -0.51932335
2.8046703 0.8292708 4.996811 -0.69726765 1.2651827 2.0848696 0.94944763 -1.4840225
-0.62867 2.1080072 -0.57941365 -0.90711987 -1.1154306 -0.5060461 0.9434876 1.9056463
00000000: 9f91 13bf c4be 9b3f c420 cfbe 1a5e 1140
00000010: a43b b440 2e97 f0bf b1b0 8840 ea35 babf
00000020: c238 2fbf 1bb3 953f dc20 a140 387c 83bd
00000030: fe5f cb3f cbb3 263f e5c3 d73f 3813 1ebc
00000040: 41c6 8e40 52a5 eb3f 78f3 3340 825d 0dbf
00000050: 8487 e1be d1cf 63c0 3c97 d8be 94ce 0fbf
00000060: 862d 56bf b87d 5bbe 4667 dfbf 02ad 8140
00000070: a438 69bf 9c70 e4be 4cd5 fabe b53b 27be
00000080: 2e4a 04bf 4253 babd 42e2 6fbf 2ae8 0440
00000090: cf7a ed3f 4eed 9640 3c37 1cbf b610 593f
000000a0: ed56 d93f 7297 0040 226a d3be 6d74 99bf
000000b0: a864 50bf 4ed4 b240 1e72 5a3f 60f2 04bf
000000c0: b87f 3340 174b 543f e0e5 9f40 2280 32bf
000000d0: 82f1 a13f 816e 0540 000f 733f 73f4 bdbf
000000e0: 84f0 20bf 97e9 0640 7454 14bf 0239 68bf
000000f0: 6ec6 8ebf 3d8c 01bf 6788 713f 38ec f33f

fc2.weight f4 [21, 64]
-0.07073121 -0.7895026 0.038067266 -8.519879 -0.9578259 -0.14789043 -0.87752825 -0.07097606
0.08448981 -0.40471002 -8.764394 -0.049286142 0.0008425716 -0.12495854 -3.7893138 -0.1413463
-1.928759 0.037545837 0.059729345 0.08072304 0.016442582 -0.40855902 -0.108278915 -0.043832615
0.061488017 0.032466248 0.071553074 0.8764793 0.095674634 -0.05191505 -0.008183792 0.04815218
-0.1202755 0.04354221 -0.0091817975 0.031289224 0.019650584 0.08090143 0.10389064 -0.8037617
-1.0311723 -1.0257373 0.04349257 0.007074053 -0.05061228 2.0932384 -0.88070023 -0.08215089
0.15184724 -0.07155467 0.4489211 -0.00725125 -0.09549031 0.042057294 -0.0021835282 -0.026897728
-0.0076381415 -0.015286631 0.09034847 0.027433673 0.0051586363 -0.046302658 -0.13627934 -0.8679599
0.027690127 -0.7206244 -0.007660221 0.6753782 -1.86976 -0.13240641 -1.7693245 -0.054258518
0.016776219 0.23868638 -10.290635 0.054160472 -0.022964355 -0.004596304 0.4449139 0.029306047
-3.9847248 0.03815258 0.10287953 0.002499218 -0.01388599 -0.3273692 0.078709096 -0.044240415
0.07368332 0.04549569 0.059030738 3.5413158 0.057985365 -0.07791735 -0.09319398 -0.02844517
-0.09846224 -0.04074784 -0.03925994 0.04339904 0.026155721 0.091623016 0.034679323 -0.9052107
0.034548916 0.5184143 -0.028662777 -0.01589698 0.028604953 3.5875874 -0.95770127 0.037809476
0.18641742 0.077129364 0.94794 -0.03741599 0.056590237 0.03960176 0.057507236 0.0013468021
0.086218834 -0.009857724 0.037163466 0.022207232 0.01701751 -0.0013954395 -0.0049420637 0.35283995
0.10433166 -0.452184 -0.0678357 -0.002430134 -0.09191836 -0.17810291 -0.7544356 -0.12818453
-0.0522217 -0.09239097 -4.896441 0.06951065 0.33874005 0.067215055 -0.04858812 -0.009128882
-3.087229 -0.033877116 0.042497225 -0.13689846 0.0444981 -6.746667 -0.057098866 -0.04583019
0.05464472 -0.09251194 -0.12270693 -0.089538544 0.05944042 -0.10087077 -0.017621458 -0.09119255
-0.068888426 0.02876279 0.013267949 0.07734181 0.07660036 -0.10306048 -0.0746357 -0.22664757
-0.31930444 -0.3816864 0.034606382 -0.11419316 -0.014296227 0.32842538 -0.44728804 0.058061346
0.09458122 -0.09427898 -0.17609994 0.08994562 0.09663687 0.09921296 -0.051686138 -0.3118265
-0.01693748 0.0046518343 0.05505058 0.018270835 -0.18256529 -0.030757684 -0.03649069 -0.3924183
0.04336625 0.009635663 0.09684259 -0.7477648 -1.9515135 0.029283661 -0.80851245 0.17129749
-0.045837343 -0.38308105 0.67535245 0.08366308 -0.10916037 -0.750987 -0.63224924 0.034798242
1.1132109 -0.09930466 -0.4194226 -0.0036727143 -0.0012003928 0.3517098 -0.09096636 0.10391222
-0.05812137 -0.084221885 -0.08102092 0.1632536 -0.017354667 -0.006343305 0.04404825 -0.046292562
-0.11524828 -0.0420877 -0.051372036 -0.3794278 -0.2856431 0.81318235 -0.106117874 0.062292434
-0.24972378 -0.15697624 0.021502497 -0.018160451 0.065281086 -0.14233279 -0.119254194 0.017879158
-0.51800674 -1.0290962 0.16922623 0.017522605 -0.8489661 -0.29078588 -0.542458 0.19270091
0.06628834 -0.11424427 0.097340435 0.02693855 0.14121345 -0.008209466 -0.6886902 -0.11646358
00000000: 86db 90bd d81c 4abf 6cec 1b3d 6d51 08c1
00000010: 1434 75bf 9770 17be b1a5 60bf e65b 91bd
00000020: fe08 ad3d 2736 cfbe f53a 0cc1 44e0 49bd
00000030: 06e0 5c3a 43ea ffbd 1e84 72c0 16bd 10be
00000040: 93e1 f6bf aac9 193d c2a6 743d 1f52 a53d
00000050: 98b2 863c a62e d1be 56c1 ddbd d489 33bd
00000060: dcda 7b3d 54fb 043d 6b8a 923d f360 603f
00000070: 10f1 c33d e0a4 54bd 5015 06bc 383b 453d
00000080: 0053 f6bd 5159 323d 406f 16bc 2129 003d
00000090: 43fa a03c a6af a53d 9ec4 d43d 54c3 4dbf
000000a0: 74fd 83bf 5c4b 83bf 4425 323d 75cd e73b
000000b0: d24e 4fbd 9ef7 0540 9275 61bf ba3e a8bd
000000c0: d87d 1b3e 418b 92bd fdd8 e53e e59b edbb
000000d0: 6c90 c3bd 4544 2c3d 8619 0fbb a058 dcbc
000000e0: 6049 fabb c774 7abc 9e08 b93d 95bc e03c
000000f0: c709 a93b dba7 3dbd d08c 0bbe 9f32 5ebf
00000100: 68d6 e23c d77a 38bf 9702 fbbb 96e5 2c3f
00000110: 4c54 efbf 8c95 07be 3a79 e2bf 2e3e 5ebd
00000120: 486e 893c 346a 743e 71a6 24c1 5fd7 5d3d
00000130: be1f bcbc 989c 96bb c1cb e33e 3c13 f03c
00000140: bb05 7fc0 e145 1c3d 81b2 d23d ecc9 233b
00000150: 1082 63bc f09c a7be 3c32 a13d 7035 35bd
00000160: 48e7 963d b059 3a3d 37ca 713d eba4 6240
00000170: 1082 6d3d 2293 9fbd 7cdc bebd d805 e9bc
00000180: 92a6 c9bd 35e7 26bd 08cf 20bd 31c3 313d
00000190: 8644 d63c d9a4 bb3d e80b 0e3d e3bb 67bf
000001a0: 2a83 0d3d cdb6 043f 33ce eabc 623a 82bc
000001b0: ef54 ea3c 089b 6540 e92b 75bf 1cde 1a3d
000001c0: 35e4 3e3e 00f6 9d3d 32ac 723f 8241 19bd
000001d0: 2acb 673d 7535 223d b58c 6b3d 2e87 b03a
000001e0: 8093 b03d 4b82 21bc b838 183d f1eb b53c
000001f0: 4e68 8b3c 2ee7 b6ba 09f1 a1bb 70a7 b43e
00000200: d6ab d53d a984 e7be 72ed 8abd e242 1fbb
00000210: b13f bcbd 9c60 36be b122 41bf ce42 03be
00000220: 6ce6 55bd 7a37 bdbd a5af 9cc0 9a5b 8e3d
00000230: 566f ad3e 0ca8 893d 5604 47bd 4e91 15bc
00000240: 2995 45c0 bbc2 0abd 9211 2e3d 1c2f 0cbe
00000250: a443 363d b2e4 d7c0 80e0 69bd 70b8 3bbd
00000260: 24d3 5f3d e676 bdbd c54d fbbd fc5f b7bd
00000270: cc77 733d 5695 cebd e05a 90bc 29c3 babd
00000280: 6015 8dbd f19f eb3c d061 593c 6265 9e3d
00000290: a6e0 9c3d 5f11 d3bd 9ada 98bd 4d16 68be
000002a0: df7b a3be 666c c3be 6cbf 0d3d 1ade e9bd
000002b0: b93a 6abc 5f27 a83e f002 e5be bcd1 6d3d
000002c0: ccb3 c13d 5615 c1bd 8b53 34be 6935 b83d
000002d0: 8de9 c53d 2a30 cb3d d8b4 53bd b9a7 9fbe
000002e0: 78c0 8abc 6a6e 983b b87c 613d b8ac 953c
000002f0: 65f2 3abe 8af7 fbbc 4377 15bd 0deb c8be
00000300: cfa0 313d e6de 1d3c 6855 c63d 846d 3fbf
00000310: 32cb f9bf 4ae4 ef3c acfa 4ebf 9c68 2f3e
00000320: f0bf 3bbd 3323 c4be e6e3 2c3f 8d57 ab3d
00000330: 798f dfbd af40 40bf 16db 21bf 9a88 0e3d
00000340: b27d 8e3f 3e60 cbbd 8fbe d6be ecb1 70bb
00000350: 8056 9dba 4f13 b43e 924c babd eecf d43d
00000360: ac10 6ebd 867c acbd 4cee a5bd f42b 273e
00000370: 602b 8ebc 80db cfbb f06b 343d 459d 3dbd
00000380: 4a07 ecbd 2764 2cbd 7c6b 52bd 5c44 c2be
00000390: d03f 92be b82c 503f 5454 d9bd 5a26 7f3d
000003a0: 97b7 7fbe 61be 20be 0126 b03c 3ac5 94bc
000003b0: 17b2 853d b0bf 11be 8b3b f4bd 5077 923c
000003c0: 179c 04bf 6db9 83bf a449 2d3e 918b 8f3c
000003d0: d855 59bf e3e1 94be 87de 0abf 6353 453e
000003e0: 2ec2 873d e6f8 e9bd 6c5a c73d 3cae dc3c
000003f0: 429a 103e ff80 06bc 004e 30bf 7584 eebd

fc2.bias f4 [21]
0.46648422 1.1524502 -0.21230137 -1.1411487 -2.390531 0.0956718 1.2394753 -0.11515771
-0.26292482 0.5132439 0.4268198 1.455789 -0.45527294 -0.5697247 -0.39749545 -0.7234586
-1.150934 -0.4256021 0.0536738 0.008549781 -1.1658227
00000000: 05d7 ee3e 7d83 933f 8865 59be 2911 92bf
00000010: 76fe 18c0 94ef c33d 20a7 9e3f ced7 ebbd
00000020: 159e 86be f463 033f 2088 da3e 4b57 ba3f
00000030: 8919 e9be 7ad9 11bf 8684 cbbe 9534 39bf
00000040: ce51 93bf 85e8 d9be 0fd9 5b3d 6114 0c3c
00000050: ae39 95bf
